model/experiments/sample/0-onmt_model_step_1024.pt (torch_old, 321989 bytes, 22 tensors)

encoder.embeddings.make_embedding.emb_luts.0.weight f4 [18, 50]
000000 54 2e a0 bc 80 50 38 3c 80 7e ad 3c d0 9a af bd
       -0.019553341 0.011249661 0.021178484 -0.0857445
000010 ea 19 75 3d 6d e6 9e bd ec e6 fc bc a8 99 87 3c
       0.059839167 -0.07758794 -0.03087183 0.016552761
000020 ad 85 96 3d 91 61 85 3d 88 3f 80 3c 39 32 a7 3d
       0.073497154 0.0651275 0.015655294 0.08163876
000030 c0 bf 7b 3c 56 f2 a4 bd 69 c9 88 3d 0a d7 9b bd
       0.015365541 -0.080540344 0.06679041 -0.07609375
000040 b4 a3 c5 bc dc ad d9 3c b7 00 ae 3d 00 17 a6 bb
       -0.024125911 0.02657216 0.0849623 -0.00506866
000050 e8 67 4b bc 79 3c c0 3d 53 35 84 3d 6e f0 9e bd
       -0.01241491 0.09386534 0.06455483 -0.07760702
000060 94 18 b9 3c 7f 77 88 3d a8 de 86 bd 03 f2 b5 bd
       0.022594728 0.06663417 -0.06585437 -0.08884051
000070 43 9d ab bd 48 c5 f0 bc 76 6d 25 3d 20 98 b1 bb
       -0.08379605 -0.029390946 0.040387593 -0.005419746
000080 6f cd 99 3d 73 37 2c bd 43 6a 56 bd 7a 48 ab bd
       0.075098865 -0.042045068 -0.052347433 -0.08363433
000090 0c d1 c3 3c 60 ac 98 bc f3 8d 39 bd 80 d5 7f bc
       0.023903392 -0.018636882 -0.04530139 -0.015614867
0000a0 3a 8b 7a 3d ea 22 13 3d 2a 24 69 bd 4e 16 76 3d
       0.061167933 0.03592197 -0.056919254 0.060079865
0000b0 b9 de 86 3d d7 bc 90 3d 0d 43 94 bd 86 3b 5d 3d
       0.0658545 0.07067268 -0.072393514 0.054011844
0000c0 5f 5c ac 3d 12 5a 09 3d d7 54 b5 3d 30 1f 6d bc
       0.08416056 0.033533163 0.088540725 -0.014472768
0000d0 74 63 87 bc b3 93 ab 3d d0 52 1d bc 42 56 2a 3d
       -0.016526915 0.08377781 -0.009602264 0.041586168
0000e0 60 f2 4b 3b c0 03 9c bd c0 a6 63 bb 20 19 bf bd
       0.0031119809 -0.07617903 -0.0034736842 -0.09330964
0000f0 ea 22 39 3d ff 45 c0 3d cd 31 87 3d 00 74 65 3b
       0.045199312 0.09388351 0.066012956 0.0035011768
000100 0d a0 8a 3d 1e b1 31 3d 2c 79 e3 bc 52 7c 2c 3d
       0.067688085 0.043381803 -0.02776774 0.04211075
000110 b0 8c 8c 3b 4a df 58 3d 09 2e a0 3d c8 d9 96 bc
       0.004289232 0.05294732 0.078212805 -0.018414393
000120 56 9a 15 3d e0 c8 8e 3c 70 bb 0e bd 00 f2 28 bc
       0.03652414 0.017429769 -0.034846723 -0.010311604
000130 d8 eb a7 3c ae 73 a1 bd e8 ab b0 bc 00 33 0a 3a
       0.020498201 -0.07883392 -0.021566346 0.0005271882
000140 c0 32 08 3b cb 79 8c 3d 15 83 a5 bd 63 cb b2 bd
       0.0020782202 0.06859168 -0.080816425 -0.08730199
000150 00 3f 14 ba bf 77 b9 bd 00 a4 c3 3c 23 fb 1d bd
       -0.00056551397 -0.09056043 0.023881912 -0.03856958
000160 e8 ca b8 bc 3e d0 09 3d f4 e2 c7 3c 54 80 bf bc
       -0.02255769 0.03364586 0.024400212 -0.023376621
000170 c2 50 87 bd 18 af 99 bc 40 26 9d bd 6a 27 7f bd
       -0.066072 -0.018760249 -0.07673311 -0.062293448
000180 50 7c a5 bb 20 85 12 bd bd c2 b3 3d 51 47 95 3d
       -0.0050502196 -0.03577149 0.08777378 0.07288993
000190 19 3b 2c 3c bf b0 9d 3c 81 c2 03 be 28 55 cb bd
       0.010512137 0.019249318 -0.12867166 -0.09928352
0001a0 f2 2e 52 bd 48 af 3b 3d 9b 94 e6 3d 62 1c 27 3d
       -0.0513143 0.045821458 0.11258813 0.040798552
0001b0 9e 62 81 bd 58 4c 92 bd 33 c9 90 bd 9e a2 b0 bd
       -0.06317638 -0.07143468 -0.07069626 -0.08624767
0001c0 f7 52 85 3d 80 e4 40 bd 5c 06 20 3d da 83 13 bc
       0.06509965 -0.047092915 0.039068565 -0.009003604
0001d0 b5 15 70 3d a9 2a 29 3d 95 0d fa 3c 17 14 33 bd
       0.05861445 0.04130045 0.030524055 -0.04372033
0001e0 ab 3d 99 bb 93 04 ea 3c 2b fb 8e 3d 7f d6 47 3e
       -0.004676541 0.028566634 0.069815 0.19515418
0001f0 05 e6 36 3d ce f6 60 bd cd 8d a8 3d 17 55 7a bd
       0.044652957 -0.05492287 0.08230171 -0.061116304
000200 d6 c2 85 3d 06 d9 de ba 34 18 3b 3d 12 e2 a3 3d
       0.06531303 -0.0017001934 0.04567738 0.08002104
000210 2e 7f af bd 83 48 54 be 93 05 ac 3c 70 b1 9e bd
       -0.085691795 -0.20730786 0.020998752 -0.07748687
000220 58 66 ca bd 65 87 43 bd f2 1e 87 3d 4c 70 d7 bc
       -0.09882802 -0.047736544 0.06597699 -0.026298665
000230 52 3c a4 bb 99 d3 ac 3d 48 62 cc 3d 14 a9 ae 3c
       -0.0050120736 0.084387966 0.09979683 0.021320857
000240 d1 20 8d 3d 36 82 e6 bc 55 05 89 3c 6d 6c 4f bc
       0.06891025 -0.028138261 0.016726175 -0.012660128
000250 0e 3a 31 bd ce 3a 5b bd f8 97 fc bd 32 88 a6 3d
       -0.043268256 -0.053522877 -0.12333673 0.08131446
000260 63 ea 95 3e f2 ae 2d 3e b1 c4 b3 bc d6 53 36 be
       0.29280385 0.16961268 -0.021944376 -0.17805418
000270 d1 28 65 be 6d 54 e4 3c 50 72 02 3e 02 0d 6e 3c
       -0.22378851 0.027872289 0.1273892 0.0145294685
000280 9a 2e 5a bd 98 fe 80 3e f4 18 2f 3e c5 61 98 3e
       -0.0532671 0.2519424 0.17099363 0.29762092
000290 65 9c 4d be 4c 19 28 3e bf 8e 39 be ed 90 c0 bc
       -0.20079191 0.164159 -0.1812086 -0.023506606
0002a0 18 5c a8 3d 3c 5d a1 3d 8f d5 1d 3e bc 91 0f 3e
       0.082206905 0.07879111 0.15413497 0.14020437
0002b0 b1 17 01 3d 0d 00 86 be 88 7d a7 be 77 7a 03 be
       0.031516735 -0.26171914 -0.3271296 -0.12839685
0002c0 d5 c8 28 3d 44 5d f0 bd 07 76 be bd 78 aa c9 3c
       0.041207153 -0.11736539 -0.09299856 0.024617419
0002d0 05 20 44 be d9 f6 99 be dd e9 02 bd f2 49 85 3e
       -0.1915284 -0.30071142 -0.03196131 0.26032978
0002e0 9c 59 3f 3d 1d d2 6e 3e fc 13 52 3e 57 61 8b 3b
       0.046716318 0.2332234 0.20515436 0.004253547
0002f0 2f b4 04 be ee 68 a0 bd ae 81 2d 3b 16 23 94 bd
       -0.1295936 -0.07832514 0.0026475 -0.072332546
000300 42 af 2d be 05 cd 09 3e 22 b4 6a bb cb 6f 46 3e
       -0.16961387 0.13457115 -0.0035812934 0.19378583
000310 c4 d1 15 be 3c ae 43 bc 19 74 87 bd 78 42 89 bc
       -0.146308 -0.011943396 -0.06613941 -0.016755328
000320 cd a8 69 bd 03 e7 cf 3d f6 57 b8 bd 40 b4 c2 bc
       -0.057045747 0.10151484 -0.09001152 -0.02376759
000330 9f 68 7d bd cc ed b4 3d e0 8d f5 bc 4a 50 74 bd
       -0.061867353 0.08834419 -0.029974878 -0.059646882
000340 35 00 dc 3a 86 ef ff bc 8d 2c 62 bd 4c 42 21 3d
       0.001678473 -0.031242143 -0.05521827 0.039369866
000350 4d cb 96 3d 19 03 5d bd c4 57 87 3c 72 36 01 3d
       0.07362995 -0.053958032 0.016521342 0.031546064
000360 9e 21 a3 3d d5 34 36 3b 4a 99 4b bd d5 1f 98 bd
       0.07965396 0.0027802486 -0.049706735 -0.074279465
000370 44 da ff bd 03 a5 f5 bb 8a 3c e1 3d 44 5f ea 3d
       -0.12492803 -0.0074964776 0.10997875 0.11443952
000380 24 78 cd bc 02 81 ee 3c 48 55 46 3d b7 eb c0 3c
       -0.025081702 0.02911425 0.048421174 0.023549898
000390 ce 83 00 bd 96 8a 8f bc d9 9b 2e 3c 76 28 bd 3b
       -0.0313757 -0.017522138 0.010657274 0.0057726456
0003a0 de 1b e6 3c 73 56 87 3d 96 02 70 bd e4 9d e2 bd
       0.02808946 0.06608286 -0.058596216 -0.110652715
0003b0 53 ed 76 bd 4a d5 13 bc 3e bf 22 bd 42 f3 6e bd
       -0.060284924 -0.00902302 -0.039733164 -0.058337457
0003c0 06 9d 5d 3d fd bf 84 bb ca 93 6a 3b 45 11 c2 bd
       0.054104827 -0.004051207 0.0035793656 -0.0947595
0003d0 06 2e 9a bc 4e ca 48 bd d3 b6 16 bd 0a 2c 74 3c
       -0.018820774 -0.049021058 -0.03679545 0.014903078
0003e0 54 fd bf 3d d3 c3 64 3c 2b ac be bc 65 14 9e bc
       0.093744904 0.013962704 -0.023275455 -0.019296834
0003f0 a2 f8 be bd 9d 6f f8 bc 21 47 bb bc 02 b8 60 3d
       -0.09324767 -0.030326659 -0.022861065 0.054862984

encoder.rnn.weight_ih_l0 f4 [150, 50]
000000 c7 b5 61 bd f8 af 12 3d ce 8b 3d 3b 3b 0a 81 3c
       -0.055104997 0.035812348 0.0028922441 0.015751949
000010 ff 59 38 bd bf 5e 7f 3c 95 50 2d bd 88 11 ce 3d
       -0.045007702 0.015586554 -0.042313177 0.100619376
000020 54 75 43 3c af 00 a7 bd bc be b7 bc d8 c0 70 3d
       0.011929829 -0.08154427 -0.022429816 0.05877766
000030 b7 3b 0c 3d d6 dc 7e 3d f6 73 71 3d 1e 80 9c bd
       0.034236636 0.062222324 0.05894848 -0.07641624
000040 28 01 40 bb bc c9 b3 bd 9f 92 ca 3d 7e 31 8e 3d
       -0.0029297564 -0.08778712 0.09891247 0.06943034
000050 b0 7f 7d bc e3 2b b7 3d ac 82 0a 3d 9a 00 12 3d
       -0.015472338 0.089439176 0.033816025 0.035645105
000060 fe ab eb bc 30 69 84 bd 39 e8 a7 bd 39 20 ad bd
       -0.028768536 -0.064653754 -0.0819859 -0.084534116
000070 9f 1d 88 3d 72 f8 be 3d 2a b0 a6 3d ad b9 3e bd
       0.06646275 0.09324731 0.081390694 -0.046563793
000080 f0 7b a4 3d 69 47 89 3d 3f 41 71 3d d3 d9 9b 3d
       0.08031452 0.067030735 0.058900114 0.07609906
000090 fd d4 07 bd bd cf 21 3d 56 12 2f bd 53 e5 c7 3d
       -0.033162106 0.039504755 -0.042742096 0.09760537
0000a0 c6 2d 93 3d 7c be 41 bd ae 45 5f 3d 3b 1c 05 bd
       0.07186465 -0.0473008 0.05450981 -0.032497626
0000b0 64 d9 47 bd 0c 77 00 bd 0a 4c 96 3c f3 37 2b 3c
       -0.048791304 -0.031363532 0.018346805 0.010450351
0000c0 b6 8b 24 3d 21 55 90 bb 8c c7 be 3c e1 48 b2 bd
       0.0401723 -0.0044046794 0.02328851 -0.08705307
0000d0 d0 e8 80 3d 9e 2f ad 3d 4f f2 8b bd 8e 0d 74 bd
       0.062944055 0.08456348 -0.06833326 -0.05958324
0000e0 1b c6 b5 3d 28 37 8b 3d f7 ae 6d bd 3e 83 d3 3c
       0.08875676 0.067976296 -0.058028188 0.025819417
0000f0 e5 63 63 bc 0f 6c 99 3d 13 13 9e bc 92 f8 c3 3d
       -0.013878797 0.07491314 -0.019296205 0.095688954
000100 cf 94 87 3d ae 34 40 3d 10 26 bc 3d 84 7f fb bc
       0.0662018 0.04692524 0.09186947 -0.030700453
000110 e8 6b 90 3b 72 2d 2a bc 66 12 11 3a d0 d5 78 bd
       0.0044073947 -0.010386812 0.00055340526 -0.060750782
000120 2e e4 41 bd 2b c3 2e 3d d7 79 84 3d bc eb 05 bb
       -0.04733675 0.042666595 0.064685516 -0.0020434698
000130 89 e5 03 bd 24 64 a0 3d 12 92 15 bd 1d 4d 28 3d
       -0.032201324 0.078316 -0.036516257 0.041089166
000140 d0 26 ab 3b 13 b4 88 3c fc bb be bd e6 4c 2a 3d
       0.0052231327 0.016687429 -0.09313199 0.041577242
000150 04 45 a5 bd 48 79 8f bd ec 58 c8 bd f1 34 bb bd
       -0.08069804 -0.070055544 -0.097825855 -0.09140957
000160 2d 9a 1a bd c8 62 1d 3d ee 0d b8 3d 0a 04 36 bd
       -0.03774469 0.038424283 0.08987032 -0.044437446
000170 ce 29 a0 3d a9 5d 21 bd 2c 38 8b bd 7d 10 e1 bc
       0.078204736 -0.039395962 -0.06797823 -0.027473683
000180 80 0e c8 bd 32 c8 83 bd 9a 3e 33 bd e3 02 c8 bd
       -0.09768391 -0.064346686 -0.043760873 -0.097661756
000190 8a 6f ad 3d 68 1b c7 3d 6c c0 0c bd 17 20 1f 3d
       0.0846854 0.09722024 -0.034363195 0.038848963
0001a0 b2 3d 9d 3d 1b f2 b7 bc 59 9a ef 3c 4e 3e a4 3d
       0.07677783 -0.022454312 0.029248403 0.08019696
0001b0 b5 9b ae 3c 08 65 99 3d 1b 0d 56 3d b1 5c 17 bd
       0.021314481 0.07489973 0.052258592 -0.03695363
0001c0 d7 ee c2 3c 85 11 06 3c 80 71 99 3d 84 6e 1c 3d
       0.023795528 0.008182888 0.074923515 0.038191333
0001d0 50 1d 4b bd e3 5d 86 bb b3 e8 ca 3d 74 89 95 bc
       -0.0495885 -0.0041005476 0.09907665 -0.01825402
0001e0 e2 7f 6c 3c f4 93 9f 3d 41 e3 e6 bc 29 08 4a 3d
       0.0144347865 0.07791892 -0.028184535 0.04932419
0001f0 d6 c0 03 3d 9a ff cb 3d fc 86 2b bd 0c 38 d8 bc
       0.032166325 0.099608615 -0.041876778 -0.026393913
000200 4d c8 91 3d 4a 6a 9d 3d 12 81 90 bd 30 b0 78 3d
       0.071182825 0.07686289 -0.07055868 0.0607149
000210 5c a8 92 3d d8 72 60 bc cf af 78 3d c8 dc bb 3d
       0.07161018 -0.013699256 0.06071454 0.0917297
000220 21 c7 4a bd c1 a3 cb bd 09 05 be 3c 20 8d 97 3c
       -0.04950631 -0.09943343 0.02319576 0.01849991
000230 2e 17 5e 3c bd 96 15 3b 12 a4 4e bd 09 13 ab 3d
       0.013555331 0.0022825443 -0.05044944 0.0835324
000240 55 11 85 3d fa 41 15 3d aa 84 95 3c b2 fe 11 3d
       0.064974464 0.036439873 0.018251736 0.035643287
000250 7d 60 31 bb 5f 2f 75 bd 08 40 a0 bd bc c9 7e 3d
       -0.0027065568 -0.05985963 -0.07824713 0.062204108
000260 e7 fb 31 bd 64 f2 55 bd 3f 49 14 3b 0c 57 ef 3c
       -0.043453123 -0.052233115 0.0022626666 0.029216312
000270 21 5d c0 bb ef c2 cb 3c 2b c1 50 bd 9b 16 88 bd
       -0.005870477 0.024873225 -0.05096547 -0.06644937
000280 13 9d 96 3c 8c 43 87 3d 34 1f 17 bd 4b 6c f0 bb
       0.018385446 0.066046804 -0.036894992 -0.0073371283
000290 c2 af 96 3c 14 aa cc bc a2 76 8c bd 6b 38 63 3c
       0.018394355 -0.024983443 -0.06858565 0.013868432
0002a0 2f 71 f6 bc 18 1f f9 bb 88 c9 12 3d 98 f3 5f bc
       -0.030083267 -0.0076025836 0.035836726 -0.013668917
0002b0 6a 17 a1 bb 60 83 c3 3d fe e9 3e bd 1d 39 26 bd
       -0.0049161213 0.09546542 -0.04660987 -0.04058181
0002c0 f8 8a 16 bd b4 8f c3 3d 6e fc 0e bc 9b 6c 32 3c
       -0.036753625 0.095488936 -0.008727176 0.010890151
0002d0 b2 92 f9 bc 65 e4 69 bc 41 27 47 3d b5 41 44 3c
       -0.030465458 -0.014275645 0.04862142 0.011978556
0002e0 23 a3 a4 3c 74 61 47 bd 5a 32 a5 bd 1d 26 8e bc
       0.02009732 -0.048676923 -0.080662444 -0.017352158
0002f0 31 db 90 bd 3c 79 94 3d 4c 56 c3 bd be 55 d4 bc
       -0.070730574 0.07249686 -0.09537944 -0.025919791
000300 63 a1 b4 bc e7 8d af 3d 21 cc f4 bb 4b 86 1e 3d
       -0.022049611 0.085719876 -0.007470623 0.03870229
000310 6e 9d 03 3d 60 0d dc 3c 1b d4 c7 bc e2 d3 b5 39
       0.03213256 0.026861846 -0.024393132 0.00034680875
000320 7d dc 01 bd e8 32 e6 bc 1d 2e 38 bd 4e b5 81 bd
       -0.031704415 -0.028100446 -0.044965852 -0.06333409
000330 5a fc 83 bd b9 8e 9e 3d a7 63 b4 3d 6f 7f b5 3d
       -0.064446166 0.07742066 0.0880807 0.08862197
000340 0e ec b0 3b 6c f6 e9 3c af 81 58 bd 1e 61 27 bd
       0.0053992337 0.028559886 -0.05285805 -0.040864103
000350 01 b7 43 3d 7a b3 11 3d c7 a7 a3 3d d9 82 7d bd
       0.047781948 0.035571553 0.07990985 -0.061892364
000360 77 8a 10 3d 85 39 31 bd 44 53 a0 bc 81 86 7f 3d
       0.0352883 -0.043267746 -0.019570954 0.062384132
000370 4f 8e 3e 3d 09 4a 3d bc 5e 5f 60 bd 59 f7 4d 3c
       0.046522435 -0.011553296 -0.05477845 0.012571179
000380 e1 8b 8f bd 24 8d 90 bd 42 14 44 3d d0 89 ab 3d
       -0.07009102 -0.070581704 0.04787088 0.08375895
000390 cd 27 a4 bd 51 9c 15 bd 8f 1f 0b bd 9b 65 56 bc
       -0.08015404 -0.036526028 -0.033965643 -0.013085748
0003a0 82 6d 64 3d 55 93 b8 bd d3 b0 c0 3d d0 79 a9 bd
       0.055768497 -0.09012476 0.094087265 -0.08275187
0003b0 cd a9 a6 bd 33 c5 94 3d 03 af c1 3c c2 39 a6 3d
       -0.08137856 0.07264175 0.023643022 0.08116485
0003c0 70 a6 84 bd 2d fc 97 bd 5e f8 7b bd a4 04 69 3c
       -0.06477058 -0.074211456 -0.06151616 0.014222298
0003d0 66 f8 28 3c de e3 5c bd 05 4c 5e 3d 8c c1 bf 3d
       0.010313129 -0.05392825 0.054271717 0.09363088
0003e0 6f 5b a9 3d 43 60 c7 bd 68 33 0e 3d b5 f9 11 bd
       0.08269393 -0.09735157 0.034716994 -0.03563853
0003f0 42 c4 28 bc 80 9e e7 bc 49 48 88 3d 4f 7c dd 39
       -0.010300698 -0.02827382 0.06654412 0.00042245022

encoder.rnn.weight_hh_l0 f4 [150, 50]
000000 12 e1 57 bd e7 68 a1 bd 75 10 53 3d 48 cc 27 bd
       -0.05270488 -0.07881337 0.051529367 -0.040966302
000010 75 a2 b7 bd 31 3e 20 3d b3 b8 cb 3c 27 a1 7d bd
       -0.08966533 0.03912181 0.024868345 -0.061921265
000020 17 99 e2 bc c0 71 00 bd a7 74 14 bc d6 ab 68 3c
       -0.02766089 -0.03135848 -0.009061015 0.014201125
000030 b6 5e a8 3d 61 4d cb bc e3 e9 1b bd 09 85 b2 3d
       0.0822119 -0.02481717 -0.03806485 0.08716781
000040 9c fe fd bc 2c 29 c9 bd 66 67 bd bd b6 4e 80 bd
       -0.031005196 -0.09822306 -0.09248237 -0.06265013
000050 f8 78 31 3d c3 dc ab bd 82 5a 34 3d 16 94 34 3d
       0.043328255 -0.08391716 0.044031627 0.04408654
000060 1a fb 55 bd b4 0f 65 bd 53 5b dc 3b 18 15 4d bd
       -0.052241422 -0.05592318 0.006724754 -0.050068945
000070 d7 f7 15 bd ff 46 57 3d c2 85 ed 3c 34 b0 94 3c
       -0.03661331 0.05255794 0.028994445 0.018150426
000080 d9 e5 18 bd d5 57 c1 bd 8e 24 fa bc 4a 44 a0 3c
       -0.037328575 -0.09440581 -0.030535009 0.019563813
000090 52 fb cb bd d4 8d 47 3d b7 bc 10 bd 0b 41 98 bc
       -0.09960045 0.048719242 -0.035336222 -0.018585702
0000a0 c6 bf bf bd 47 09 b4 bd bc 41 d4 bd 69 07 1e 3d
       -0.0936275 -0.08790832 -0.103641 0.038581286
0000b0 4a 63 bc bd 15 64 66 bd 9d e8 04 bd 81 62 83 bd
       -0.091986254 -0.05624779 -0.0324484 -0.064152725
0000c0 9e fd 93 3d 76 13 65 3d d7 de c6 3d 1b 8a 7e bd
       0.07226108 0.055926763 0.09710472 -0.062143426
0000d0 29 20 31 3d a7 34 a1 3d e1 0e 00 bd 64 ee 80 3b
       0.04324356 0.07871371 -0.03126419 0.0039346684
0000e0 73 fc 48 3d 47 2f aa 3d b7 fd c3 3d ad 30 27 3c
       0.04906888 0.08309799 0.09569877 0.010204476
0000f0 65 f0 8e bc 17 9f db 3d 89 26 28 bc 08 0f 84 3d
       -0.017448613 0.10723703 -0.010263094 0.064481795
000100 06 98 8b 3d de e4 81 3d c2 51 e6 3c b7 c1 80 bd
       0.068161055 0.06342481 0.028115157 -0.06286948
000110 00 00 c6 3c 75 d7 17 bd 1c bf 30 bc c9 34 66 bd
       0.024169922 -0.03707071 -0.0107877515 -0.056202684
000120 2f 6f 18 bd f0 88 93 3d 14 1a c8 bd 68 0b 80 3d
       -0.037215408 0.07203853 -0.09770599 0.062521756
000130 89 43 21 3d 11 a7 3a bc 67 dd ac 3c e7 38 b5 bc
       0.039371047 -0.011392371 0.021101667 -0.02212186
000140 35 6c 7e 3d 24 b4 b7 3d 46 9e d5 3d 72 b8 0b bd
       0.062114913 0.08969906 0.10430579 -0.034111448
000150 b6 de 5e 3d b7 2d 36 bd 2a 59 8b 3d ba 66 c2 3d
       0.054411612 -0.04447719 0.06804116 0.0949225
000160 0e 10 0c 3d 4e ec a4 bc 8d f4 64 bd ff b7 28 3d
       0.034195 -0.02013221 -0.055897284 0.041191097
000170 fa 2b f2 bc ee 95 3c 3c fa 44 ad bd 48 c3 8e 3c
       -0.029561985 0.011510355 -0.08460422 0.017427102
000180 5a 63 2a 3c f0 df 49 3d 53 6c a3 bd 3a f3 86 bd
       0.010399664 0.04928583 -0.079796456 -0.065893605
000190 c5 8d 93 ba a8 dc 90 3d 49 ca 53 bd c1 8e c2 bd
       -0.001125746 0.07073337 -0.051706586 -0.094998844
0001a0 66 08 a9 38 96 de 2a bd 90 9a 15 3d 25 1e cb bc
       8.060112e-05 -0.04171618 0.036524355 -0.024794647
0001b0 fe d9 ce 3c a4 f3 93 bd a1 33 9a 3d 86 94 3b bd
       0.025250431 -0.07224205 0.07529379 -0.04579594
0001c0 75 33 1c bd c4 4e 41 3d 42 00 6d bd 90 85 39 3d
       -0.03813501 0.047194257 -0.057861574 0.04529339
0001d0 4d 91 df 3c 18 5a 7c bd 0c 53 cf 3d 73 98 9d 3d
       0.027290964 -0.061609358 0.10123262 0.07695093
0001e0 34 ce 6d bd 81 57 c9 bd e2 28 3d bd 45 b9 54 3d
       -0.05805798 -0.09831143 -0.046181567 0.0519345
0001f0 0b dc c8 bc 02 f1 da 3c 06 85 62 b9 69 f6 c3 bd
       -0.024518987 0.02672625 -0.00021602595 -0.095684834
000200 4d cd a6 bd 4e 46 80 3d 91 22 86 3d 4d a5 ac bd
       -0.08144627 0.062634096 0.06549562 -0.08429966
000210 7b 32 9b 3d 97 00 33 bd 3f 82 37 3c 69 a6 c3 bd
       0.07577988 -0.043701734 0.011200487 -0.095532246
000220 12 89 82 3d 86 04 17 bd 7f b0 bb 3d a7 f5 64 bc
       0.063738 -0.03686955 0.09164523 -0.013974584
000230 25 cd 34 3d 24 ee 63 3d 2b b6 87 3d b8 a2 b9 3d
       0.044140954 0.05564703 0.06626543 0.09064239
000240 34 a7 af 3b 40 40 bc 3d 90 73 3f 3d ad 14 a9 3d
       0.0053605083 0.09191942 0.04674107 0.08255897
000250 88 7c 8b bc 89 dc eb 3c cd 8e 96 3c 89 71 8f bd
       -0.017027155 0.028791683 0.01837864 -0.07004077
000260 2e d3 93 3d f8 1f b8 bd 7a 25 72 bc b4 05 2c bd
       0.07218014 -0.089904726 -0.014779443 -0.041997626
000270 eb 36 38 3d 40 64 c9 3c 9d 2b 91 bd 51 26 a1 39
       0.04497425 0.024583936 -0.07088397 0.0003073686
000280 7c c1 b6 3d 98 83 34 3c a8 4c 64 3b 3d ea 6e bc
       0.08923623 0.0110177025 0.003483573 -0.014582214
000290 32 a4 10 3d a0 25 93 3b 5a 08 88 bd 91 c1 0a 3d
       0.03531284 0.0044905692 -0.06642218 0.033876006
0002a0 4b dd 27 3d 98 4b ac 3d 07 9b 85 bc 0b f3 73 bd
       0.040982526 0.08412856 -0.016309274 -0.059557956
0002b0 08 bb fd ba 03 14 ad ba d7 9a aa 3d 40 42 d0 3d
       -0.0019358108 -0.0013204816 0.083303146 0.10168886
0002c0 23 0e 67 3d 10 78 a6 3d 34 fd d4 3a 51 2e 9a bd
       0.056409966 0.08128369 0.0016249777 -0.075283654
0002d0 49 87 dc 3c a7 6e ae bd e9 4a e6 ba 94 b6 c9 bc
       0.026919978 -0.08517199 -0.0017569932 -0.024623193
0002e0 66 a7 c1 bd 2c dc 81 bd 75 bc 6c 3d 1f 06 02 bc
       -0.09455757 -0.063408226 0.057796914 -0.00793603
0002f0 19 17 d1 3a 56 47 5d bd 92 bc b5 bc 78 e1 9a 3d
       0.0015952318 -0.05402311 -0.022184644 0.07562536
000300 dc 3d c6 3d 3b fa c3 bd 8c b0 3e 3d 93 00 02 3d
       0.096797675 -0.09569212 0.046555087 0.03173883
000310 32 85 83 3d a1 b5 44 bc fa db 4a bd 4b 74 62 bd
       0.06421889 -0.012006194 -0.049526192 -0.055286687
000320 32 b8 a6 bd 46 d9 7d bb 49 37 1c 3d 2f d7 93 3c
       -0.08140601 -0.0038734241 0.03813866 0.018046943
000330 38 99 0a bd 91 70 a6 3d 84 89 7f 3d 3f a1 e8 bc
       -0.033837527 0.08126939 0.062387004 -0.0283972
000340 40 f7 21 bc e0 08 21 bd de 44 55 bd 4b f6 60 3d
       -0.009885609 -0.039315104 -0.05206763 0.054922383
000350 ca 3d c0 bd 5a ab 44 bc 88 b5 72 3d 94 e2 c8 bc
       -0.09386785 -0.012003744 0.059255153 -0.024522103
000360 5e 2b a1 bd 88 12 a7 bd 72 9e 92 bd c7 13 9e bb
       -0.078696 -0.081578314 -0.07159127 -0.004824135
000370 3f 59 64 3d 36 ed b3 3d ea 0a 97 bd 33 34 7c 3d
       0.055749174 0.08785479 -0.073751286 0.06157322
000380 92 f9 35 bd bf c3 f8 bc b5 ca 2f 3c 39 4d b4 bc
       -0.044427462 -0.030366777 0.0107294815 -0.022009479
000390 19 b2 a1 3d 9a 6b cb bd e0 38 be 3d ab 1b 18 bd
       0.078952976 -0.09932633 0.09288192 -0.03713576
0003a0 25 9a 78 bd ad 29 70 bd 3d f0 a1 bd b7 e3 4f 3d
       -0.06069388 -0.058633495 -0.0790715 0.050754275
0003b0 23 c9 89 3d 5f e7 c9 bd 60 25 bf bd 29 32 e7 ba
       0.06727817 -0.09858584 -0.093333006 -0.001763885
0003c0 bd ae 92 3d a2 b8 84 bd b9 c7 ad 3d a3 1d 9a 3d
       0.07162235 -0.064805284 0.0848536 0.07525184
0003d0 d9 07 59 3d a4 06 18 3d 71 69 46 bd 81 a2 b1 3d
       0.052986 0.037115708 -0.0484404 0.08673573
0003e0 e8 06 be 3d 61 87 8a bd 09 fa 68 3c a8 99 d5 bc
       0.09278661 -0.06764103 0.014219769 -0.026074246
0003f0 cf 83 cd bc 8f 11 08 bd ac f9 99 bd 72 1b f2 bd
       -0.025087265 -0.03321987 -0.07518324 -0.11821641

encoder.rnn.bias_ih_l0 f4 [150]
000000 3c fd 86 bd f4 94 f2 3c 62 ef 9a bb 99 f7 7a 3d
       -0.065912694 0.029612042 -0.0047282437 0.061271284
000010 c8 e8 83 3c aa 80 18 3e dc ed d4 3d 41 88 b0 3c
       0.01610221 0.14892831 0.103969306 0.021549346
000020 ba 2d 00 bd 96 46 c6 bd 91 66 69 3d 5c 67 b7 bd
       -0.03129361 -0.09681432 0.05698258 -0.08955261
000030 53 ca 35 3d 1f 2d 52 bb 9b 38 8b 3d a9 2d 12 3c
       0.044382405 -0.0032070351 0.06797906 0.008922019
000040 53 09 35 3d 5e 6c eb bd 97 5c 61 3d 5a 26 6f bd
       0.044198345 -0.11495279 0.05501994 -0.058386184
000050 2c f5 79 bd a2 92 82 bd 23 db 2c bd 25 fa 2f bd
       -0.06102483 -0.06375624 -0.042201173 -0.042963166
000060 f8 79 b0 bd bf 9c 88 3d fb 73 9f bd a9 aa fb bb
       -0.08617014 0.06670522 -0.077857934 -0.0076802564
000070 9d 9e 9d 3b 7d 5b 07 be fb 4c 3f 3b be ad 64 3c
       0.004810168 -0.13218494 0.002919017 0.013957439
000080 09 12 9c bd 71 a2 0b be 43 3d 52 bd ee 3c 8f 3d
       -0.076206274 -0.13636185 -0.051327955 0.06994043
000090 53 6e 0f 3e d3 f0 a9 3d 0e 23 77 3d 22 c7 33 bb
       0.14006929 0.08297887 0.060336165 -0.0027431925
0000a0 75 5f 4b bd 3d e8 4b 3d d8 19 a9 bd 5b 5a 28 bd
       -0.04965158 0.049782027 -0.082568824 -0.041101795
0000b0 3a c5 4d bd ac 81 e0 bd 05 d2 e4 3d 62 04 3c bd
       -0.050236918 -0.10962233 0.111728705 -0.045902617
0000c0 fb 97 f5 bc df 86 38 3c a3 c8 82 3d 78 11 75 3d
       -0.029979696 0.0112626245 0.06385925 0.059831113
0000d0 93 70 58 3b 93 63 13 3e 31 da 8e bc ba 54 6d 3d
       0.0033026084 0.14393453 -0.017438026 0.05794213
0000e0 57 d1 f8 3d cb 50 85 3c 3a ab 22 3e 16 f6 fb 3d
       0.121493034 0.016273877 0.1588563 0.123027965
0000f0 ac 98 4c 3c 3c 79 a2 3d c9 79 e9 3d 5c 5c ef 3d
       0.012487572 0.0793328 0.11400182 0.11687538
000100 12 14 00 bc 2a 8d f1 3d 07 70 e8 3c e0 34 a2 3c
       -0.007817285 0.11794503 0.028373731 0.019800603
000110 6a 6d c2 3c b0 9c 0f 3d ed 8d 0a 3d 53 ac 42 bc
       0.023733813 0.03506154 0.033826757 -0.011881906
000120 1d 1b 09 3e 1c 02 7c bd 80 c6 fb 3d f5 cf e7 3d
       0.13389249 -0.06152545 0.1229372 0.113189615
000130 7b b8 73 3d 40 e1 9e 3d 54 1d c5 bd d3 61 16 bd
       0.059502106 0.07757807 -0.096247345 -0.036714386
000140 a8 a6 9d bd e0 d6 a6 3d 72 a4 c5 bd 2e 8b c6 bc
       -0.07697803 0.08146453 -0.09650506 -0.024236288
000150 32 52 dc 3d 7c 3e a8 bd 43 b7 c7 3d a9 28 23 3e
       0.10757865 -0.08215043 0.09751751 0.1593348
000160 0d 56 35 3d a8 4b 25 bd cf 77 32 bd 5c 4a 2b 3e
       0.044271518 -0.040355355 -0.04357129 0.16727585
000170 1c 1f 19 bd 37 08 77 bc ae b9 d4 3c 86 aa f0 bc
       -0.037383184 -0.015077642 0.025967445 -0.029378187
000180 6f 21 1e bc 1a 43 bc 3d 8a de b8 3c 1a 05 24 3e
       -0.009651526 0.09192486 0.022567052 0.16017571
000190 d1 7b 14 3f e8 a0 8e be 25 01 b8 3d c7 13 89 be
       0.5800143 -0.27857137 0.08984593 -0.267729
0001a0 99 57 9e be a1 1f 96 ba 59 2e 08 3e 3e 4a bc 3e
       -0.30926207 -0.0011453518 0.1329893 0.36775392
0001b0 ea 89 ff 3e f4 24 47 be f8 cb 7d be 04 85 6f 3d
       0.49909908 -0.1944769 -0.24784839 0.058476463
0001c0 43 01 00 3f 4f 0d 25 be 15 7c 8c be 6b 44 05 3f
       0.50001925 -0.16118358 -0.27438417 0.5205752
0001d0 61 62 4b bf 97 00 26 be 57 d7 df bc b2 3b 5f be
       -0.7944699 -0.16211163 -0.027324362 -0.21800116
0001e0 fa c5 3d 3d f3 c9 1a bf 86 64 1c 3d 1d 8a 2e bd
       0.046331383 -0.604644 0.038181804 -0.042612184
0001f0 d3 8e 86 bc ff ed fa 3e 52 43 78 be f7 a8 dc 3d
       -0.016425526 0.49009702 -0.2424443 0.10774415
000200 35 57 6a 3e db 47 3f 3e 9f eb 6c 3d c8 7a ee 3d
       0.2288483 0.18679754 0.057841893 0.116445124
000210 c7 c0 84 3e 32 c4 44 be 33 2b 91 be 23 ce 8e be
       0.25928327 -0.19215468 -0.2835327 -0.27891645
000220 e1 84 0d bd ae fb c5 3e 4c 42 8e bd 0b cd c9 bd
       -0.03455055 0.3866858 -0.06946239 -0.09853562
000230 b7 9f 1b be 9c 32 04 bf 22 1a 4f 3c 30 ff 52 3e
       -0.15197645 -0.51639724 0.012640508 0.20605159
000240 6a 27 f6 be cd 7a 8b be d0 4a 63 bd fd 18 0b bd
       -0.48076946 -0.27242127 -0.05549127 -0.033959378
000250 d0 6d ce be cf 67 92 3e
       -0.40318155 0.28594825

encoder.rnn.bias_hh_l0 f4 [150]
000000 c6 c9 83 3d 47 bf 23 3d 93 52 e5 3c 2f 11 82 3d
       0.064349696 0.03997734 0.027993476 0.06350934
000010 05 58 e3 3c f9 6c 03 3e bf ea a9 3d 4d 1b b1 bc
       0.027751932 0.12834539 0.082967274 -0.021619463
000020 17 d5 df 3d 17 33 39 bd 2a 3e f8 bb 1e 6b 3a 3d
       0.109293155 -0.04521474 -0.00757577 0.04551231
000030 46 61 5f bb 16 7f f2 3c c7 99 b5 3c 22 52 d5 3d
       -0.003408508 0.029601615 0.022168053 0.10416056
000040 99 5f 3d 3d 3e 44 f0 bd 90 c0 c5 3c ba 36 d3 bc
       0.046233747 -0.11731766 0.024139673 -0.025782932
000050 75 93 f2 bc 3c 2e 88 3d 57 ad c2 3d 3b ab de 3d
       -0.029611329 0.066494435 0.09505718 0.10872503
000060 6b 0e c4 3a d9 76 80 3d fb 26 36 bd 80 1f 99 3d
       0.001495791 0.062726684 -0.04447077 0.07476711
000070 79 f8 d3 bc 1f a9 b6 bd d8 f2 3c ba a6 23 bb bb
       -0.025875317 -0.08918976 -0.00072078174 -0.0057110367
000080 6b 05 02 3d d6 86 d8 bd 10 f1 0e 3c c0 aa d6 bc
       0.03174345 -0.10572593 0.008724466 -0.026204467
000090 ab 3f c1 3c 31 98 bb 3c 13 75 b3 bc f6 01 8e 3d
       0.02358993 0.022899719 -0.021906411 0.06933968
0000a0 f6 63 81 bd 3d d8 4e bd 6b e3 f1 bd 13 b4 5c 3b
       -0.06317894 -0.05049919 -0.11810955 0.0033676669
0000b0 54 fb a9 bd 1f c1 2a be c9 a8 bb 3c e1 f8 f9 3b
       -0.0829989 -0.16675232 0.022907631 0.0076285456
0000c0 e2 74 cf bd 59 5e 57 bd 06 bc 2e 3e 5a 79 11 bd
       -0.101297155 -0.05258021 0.17063913 -0.03551612
0000d0 4a aa c1 bc 39 b4 9e 3d 72 4b 48 3d 83 64 71 bc
       -0.02364077 0.077492185 0.048900075 -0.0147334365
0000e0 00 c2 26 3e e2 4d bc 3d 44 50 67 3e cc c6 e3 ba
       0.16284943 0.091945425 0.22589213 -0.0017377972
0000f0 14 1e a0 bc 9a 58 3d bc 56 9e fc 3d 93 ae 22 3c
       -0.019545592 -0.011556769 0.12334888 0.009929317
000100 5a c3 a5 bd 79 9b 8a 3d ba c4 4f 3c 8f 04 00 bd
       -0.08093901 0.06767935 0.012681181 -0.031254347
000110 37 b5 85 3d 05 64 96 bc be 41 be 3b 7f 7f 9b 3d
       0.065287046 -0.01835824 0.005806177 0.07592677
000120 5f 44 3c 3d 10 fd 1a bd ff 9f b5 3d 23 14 41 bd
       0.04596364 -0.037838995 0.088684075 -0.047138344
000130 cf 24 c3 3d c8 20 c7 3c ba e5 06 bd 4d 5e 0e 3e
       0.09528505 0.024307624 -0.032933928 0.1390316
000140 2a 94 a1 bd 1e 21 a9 3d f2 c6 27 3d 96 a3 f2 3c
       -0.07889588 0.0825827 0.040961213 0.02961902
000150 b6 bb 6d 3d 1e cc c0 bd 93 b1 57 3d a3 78 40 3e
       0.058040343 -0.09413932 0.052659582 0.1879602
000160 ab 67 db 3b 4f 60 e2 bc fa 46 82 3d 5f 63 ff 3d
       0.006695708 -0.027633814 0.06361194 0.124701254
000170 0e 56 16 3d 9e 96 34 bd 62 d8 82 3d 56 0d 06 3d
       0.036703162 -0.044088952 0.06388928 0.032727562
000180 9a ec a6 bc fa 65 9e 3d 4c 49 5a bd 0c 29 db 3d
       -0.020376492 0.07734294 -0.053292558 0.107011884
000190 3e 01 a3 3e 79 ac 15 be 28 17 4c 3d 5f ea 1b be
       0.31836885 -0.14616574 0.04982677 -0.15226124
0001a0 ce 0c 50 be 9d 67 b4 ba b4 70 12 3d fa 3e 3c 3e
       -0.20317385 -0.0013763789 0.035752013 0.18383399
0001b0 71 54 30 3e 65 19 dd bc ef c0 1f be 53 19 8a 3d
       0.17219712 -0.026989648 -0.15600942 0.067431115
0001c0 b7 3f fc 3d 85 40 31 bd 08 f5 76 be bd 43 90 3e
       0.1231684 -0.04327442 -0.2411691 0.2817668
0001d0 b6 c0 98 be cf 2a f3 bc 32 8f f4 3a e8 2a 8c bd
       -0.29834527 -0.029683499 0.0018658398 -0.06844121
0001e0 c1 17 a6 bd 19 41 42 be 90 35 f0 bc 98 01 90 3d
       -0.081099994 -0.18970145 -0.029322416 0.07031554
0001f0 77 e2 b4 3d 84 e0 a2 3e b0 06 f4 bc 35 29 a3 3d
       0.08832257 0.31811917 -0.029788345 0.07966844
000200 b0 62 00 3e 5e 53 d1 3d 69 bc b6 bc b3 b2 8b 3d
       0.12537646 0.10220979 -0.022306638 0.068211935
000210 23 22 5d 3d 49 99 f2 bc ae 13 fa bd 6c 9a b3 bd
       0.053987633 -0.029614108 -0.12210785 -0.08769688
000220 89 a4 b1 3c 82 5f 50 3e cf 7c 42 bd 7f 02 73 bd
       0.021684902 0.20348933 -0.047482308 -0.059328552
000230 d7 96 54 3b b4 43 8e be e6 1d 87 bd cd 0e 49 3d
       0.003243854 -0.27786028 -0.065974995 0.04908638
000240 85 90 0a be 1a 0f ea bd 23 39 f1 bd 88 50 c2 3d
       -0.13531692 -0.11428662 -0.11778476 0.09488016
000250 17 dc 4c be 42 d5 d8 3c
       -0.20005833 0.026468877

encoder.rnn.weight_ih_l1 f4 [150, 50]
000000 46 c1 8a 3d 23 3e d3 3c 67 57 3f 3d ce 9c 55 3d
       0.06775145 0.025786465 0.046714213 0.052151494
000010 c1 98 4e bd e3 f3 cf bd ae a0 b8 3d 80 81 8c bd
       -0.050438646 -0.101539396 0.09015022 -0.06860638
000020 34 77 c5 bc 26 64 4b 3d 10 a3 f2 3c ca e4 49 3c
       -0.024104692 0.049656056 0.02961877 0.012322614
000030 9f fa d1 3d 77 6d 16 3c 8e 1d bf 3d 25 87 23 3d
       0.1025288 0.009181372 0.09331809 0.039923806
000040 d2 de b7 bd 0b 46 62 3b 6f ed cb bc 3b d0 83 3d
       -0.089780465 0.0034526612 -0.02489349 0.06436201
000050 19 dc a7 3c 75 f3 94 bd ba 7f 8a 3d f3 41 56 3d
       0.020490693 -0.07272998 0.06762643 0.052308988
000060 be 7c 7e bc a4 2c 43 bd f4 43 d3 bb 79 eb ec 3c
       -0.015532671 -0.047649994 -0.0064473096 0.028920876
000070 02 e9 72 3a 75 1b 2a 3d 84 4a a3 3d e0 e7 18 3d
       0.0009266288 0.04153009 0.07973197 0.03733051
000080 e6 a4 a2 3d ca 42 56 3d 56 de d7 bd ca f8 ac bc
       0.07941608 0.05230979 -0.10540454 -0.021114726
000090 25 5a be 3c 0b 53 32 3d 26 86 d7 bc a3 08 32 3d
       0.023236344 0.043536227 -0.026309084 0.043465268
0000a0 25 2b bf 3c 68 21 df bd 2a b7 66 3d 95 74 fc bb
       0.023336003 -0.108950436 0.056327023 -0.0077043273
0000b0 c2 a4 3c 3c a8 7b 15 bd f4 dc 1c bd b3 71 b0 3b
       0.011513891 -0.03649488 -0.038296655 0.0053846478
0000c0 07 a3 cc bd 0b eb 5e 3d da 0f 82 bd 43 11 f6 3d
       -0.099920325 0.054423373 -0.0635068 0.12015011
0000d0 64 82 92 3d bb 35 4c ba b2 a3 00 3e bf be 76 3d
       0.07153776 -0.0007789989 0.12562445 0.060240503
0000e0 48 f1 16 bd 4e a3 8e bd 92 7b 9a 3c 7a bc b9 bd
       -0.036851197 -0.06964742 0.018857751 -0.09069152
0000f0 82 56 28 bd 1d 29 f3 bb ca 7a 9c bd 6f b6 f9 bc
       -0.041098125 -0.0074206726 -0.07640608 -0.030482499
000100 b8 eb 72 3d 3c 90 0f 3d f2 f0 91 3d 99 f8 9a bc
       0.05930683 0.035049662 0.07126035 -0.018917369
000110 c2 ac 15 3d 13 83 75 bd e3 80 7b bd 77 ae 48 3b
       0.036541708 -0.059939455 -0.061402213 0.0030621567
000120 d5 63 6c 3d 3f b5 16 bc cf cc e6 bc a1 c7 da 3b
       0.057712395 -0.009198486 -0.028173832 0.0066766297
000130 d2 df bd 3d 47 e2 8f bd 93 1a a9 bc 0c 75 65 3d
       0.09271206 -0.07025581 -0.020642554 0.056019828
000140 16 30 da 3d 89 6e 1d bc 08 a7 1e 3c fb 66 c1 3d
       0.10653703 -0.009608873 0.009683378 0.0944347
000150 d5 bf 70 bd 01 b2 87 3d a9 7b 9d 3d 49 24 b8 bd
       -0.058776695 0.066257484 0.07689602 -0.08991296
000160 ef 3e ae bd 63 b2 96 3d 3a 54 21 3c f7 93 cf 3b
       -0.085080974 0.07358243 0.009846741 0.0063347775
000170 aa 1e 6a bd 3b 2d 7d 3d 26 69 dc 3d ad 52 98 3d
       -0.05715815 0.061810713 0.10762243 0.07437644
000180 53 84 97 bd 95 4d 8e bd d4 59 88 3d 77 77 7b bc
       -0.07398286 -0.06948391 0.06657758 -0.015348307
000190 62 f4 cc bd 29 73 a4 3d 27 1b 33 3d 76 97 b5 bc
       -0.1000755 0.080297776 0.043727066 -0.022166949
0001a0 f1 7f 9b 3d 7f 35 92 bd 1f c7 d2 3d dd 69 cc bd
       0.07592762 -0.0713911 0.102918856 -0.09981129
0001b0 63 f7 23 bd c2 8d 94 3b 6b 5a a8 bd 61 cc b4 3d
       -0.04003085 0.0045335004 -0.08220371 0.08828045
0001c0 82 a1 87 3c a3 34 49 3c 9b 8b 86 bd 33 78 b6 bd
       0.016556505 0.012280616 -0.065695964 -0.08909645
0001d0 68 43 3b bc d5 87 f6 bc d3 22 94 3d 71 2d ab bd
       -0.011429645 -0.030094067 0.07233205 -0.08358277
0001e0 e5 87 be 3d 12 bd 91 bb 0e e1 52 3b 2a b7 b5 bd
       0.093032636 -0.0044475878 0.00321776 -0.088728264
0001f0 89 93 0f bd b0 a9 c1 bd db b0 ad bd 1d c4 cf 3c
       -0.03505281 -0.094561934 -0.08480998 0.025362069
000200 e6 8f 7b bd f4 da 70 3d a2 62 f9 ba 7d 72 a2 3d
       -0.06141653 0.05880256 -0.0019026587 0.07931993
000210 b4 b1 26 3d 7b 27 cb bd 12 8f d4 3d 37 e7 dc 3d
       0.040696815 -0.0991964 0.10378851 0.10786288
000220 14 8d 8f 3d c5 e2 48 3d db a0 8f bd 34 02 09 3d
       0.070093304 0.04904439 -0.070131026 0.033449367
000230 ff 42 f4 bb 65 39 63 3d 3a e9 cc bc 64 c4 35 bc
       -0.0074542756 0.055474658 -0.025013555 -0.011094186
000240 ed 36 d6 bc cc b3 ba 3d 9d cc a5 bc 45 87 63 bd
       -0.026149238 0.09116325 -0.020239169 -0.055548925
000250 98 33 93 3d 4d 5e a1 bd fc e5 b7 bd 26 d6 ac 3c
       0.07187575 -0.078793146 -0.08979413 0.021098208
000260 f6 d6 f7 3c 08 49 9b bc 11 46 af bd d7 3a 64 bc
       0.030253869 -0.018955722 -0.08558286 -0.013930044
000270 1a 5e 81 bd e8 d7 00 bb 3d 33 ac bc 41 4d 45 bd
       -0.063167766 -0.001965994 -0.021020526 -0.04816938
000280 8a f5 cc 3c 5a 10 6b 3c d9 80 13 bc b1 06 80 3d
       0.025019426 0.01434716 -0.009002888 0.06251276
000290 d2 3f 50 3d 78 10 34 3d 66 42 a0 3d 24 77 79 3d
       0.050842114 0.04396102 0.078251645 0.060904637
0002a0 6d 72 9c 3d f6 e2 82 bd 8b 62 6f 3d 4d 09 a7 3d
       0.076390125 -0.063909456 0.058443587 0.08156071
0002b0 3f 0a 76 bd ee 37 07 3d 58 94 3a bd ce c9 7b 3d
       -0.060068365 0.033012323 -0.045551628 0.061471753
0002c0 3e 04 bc bd bd cc 94 3d 9f 45 53 bc 95 d0 83 3d
       -0.09180497 0.07265613 -0.012895017 0.06436268
0002d0 35 8b 2d bd 1a db c3 bd 28 c7 a6 3d f3 68 1b 3c
       -0.042369086 -0.09563275 0.08143455 0.009485471
0002e0 b2 d2 83 bd a4 b5 9c bc 0b 98 a0 bd 9b 7b c1 bc
       -0.06436671 -0.019129582 -0.078415 -0.02361851
0002f0 8f 69 a8 3d ef 54 c2 bd 44 34 c0 3d b0 3d 82 bd
       0.08223259 -0.09488856 0.09384969 -0.06359422
000300 48 69 ba 3d 65 ce 7f bd 17 10 49 bd 6f 6c 99 3d
       0.09102112 -0.062452693 -0.04908761 0.07491385
000310 b8 ec 66 3d 14 57 36 3d 01 cf 32 3d 30 b8 40 bc
       0.056378096 0.044516638 0.043654446 -0.011762664
000320 cb 2e c5 bd 5c ca ba bd 61 cd 74 3d eb f6 13 3d
       -0.09628066 -0.09120628 0.059766177 0.03612415
000330 3f e8 2d bd a2 99 ed bc 25 2a ac 3b 7e 33 52 3d
       -0.042457815 -0.029003922 0.0052540475 0.051318638
000340 65 e0 88 3c 8a a9 5a 3d 2f 5f b4 3d 0d 01 cf bb
       0.016708562 0.05338434 0.08807217 -0.006317264
000350 df a8 0e bd ed 61 88 bd 70 a6 92 3d 05 31 76 bd
       -0.034829017 -0.06659303 0.07160652 -0.060105342
000360 31 f0 09 3e 38 55 ca 3c 3b ba e0 3d af a1 94 3d
       0.13470532 0.024698839 0.10973021 0.07257401
000370 e3 92 81 bb 17 ee ae bc 78 31 28 bc ab 26 e8 bd
       -0.003954278 -0.021353764 -0.0102657005 -0.113355
000380 8c ac 5c 3d 6c 7e 86 bc cf 3f 0e 3c 02 25 85 bd
       0.05387549 -0.016417705 0.008682205 -0.06501199
000390 5d a2 90 bd 08 c7 53 3d 56 62 09 bd f0 8d d2 bc
       -0.07062218 0.051703483 -0.033541046 -0.025702447
0003a0 06 20 36 3d 80 4d 9c 3c 50 1e 81 3d d8 0e 40 bd
       0.044464134 0.019079924 0.0630461 -0.046889156
0003b0 69 b7 9c 3d 66 c5 09 be d1 fe 9e 3d c1 19 8e ba
       0.0765217 -0.13454208 0.07763446 -0.0010841415
0003c0 a5 d8 e4 3c ba ea e8 3d ca f7 66 bd 63 f3 4e 3d
       0.027935335 0.113728955 -0.056388654 0.05052508
0003d0 96 12 c4 bc c7 c5 4f bc 4b 84 ca 3d 8d 90 c1 bd
       -0.023934644 -0.012681431 0.09888514 -0.09451399
0003e0 fa 9b 03 3e cc e6 cc bc b8 48 91 bd 9d f7 80 3d
       0.12852469 -0.025012396 -0.07093948 0.062972285
0003f0 00 58 3b 3d 40 f4 b0 3a 5d b3 2b bd d0 d4 19 3d
       0.04573822 0.0013500527 -0.0419191 0.03755647

encoder.rnn.weight_hh_l1 f4 [150, 50]
000000 b3 1c 15 bc 5c 40 a2 3d 44 1d e4 3c 99 1c ad 3c
       -0.009101081 0.07922432 0.027845986 0.0211318
000010 ec 61 8e bc 3c 17 40 3d d1 27 2b 3d cb e2 2f bc
       -0.017380677 0.046897158 0.04178602 -0.010735224
000020 7d db 86 bd 8a 5d c5 bd 08 d1 7d 3d 04 95 e8 3c
       -0.06584833 -0.09636982 0.061966926 0.028391369
000030 0e cb 7b ba 22 69 04 bd 06 5c 66 bc e6 34 bd bd
       -0.00096051476 -0.032326825 -0.014060026 -0.09238605
000040 36 11 63 3d 46 9e f5 bc ad ab 80 3d 1b 82 fd 3c
       0.055436336 -0.029982697 0.062827446 0.030945828
000050 f2 95 d6 3d 1d 6a 6e bd 7c d0 77 bc 57 66 b6 3b
       0.104778185 -0.058206666 -0.01512539 0.005566399
000060 9c 5d e3 bd a8 19 af 3d 65 3a e6 3d f6 a9 fa 3c
       -0.11101839 0.085498154 0.112416066 0.030598622
000070 c6 9d 5f bd ba 95 b1 bb 60 d0 69 3a 85 73 94 bd
       -0.054593824 -0.00541946 0.0008919295 -0.07248596
000080 58 ee 63 bd e9 c9 3c 3d 86 70 88 3a 0c ba 7f bd
       -0.055647224 0.046090994 0.0010409511 -0.062433288
000090 67 a1 b2 3d 45 93 90 3d d4 f1 18 3d 41 ff 2b bd
       0.08722191 0.070593394 0.03734 -0.041991476
0000a0 26 f2 0a bd 30 8e ae 3d 0e 6a 3b 3d f1 93 97 bd
       -0.033922337 0.08523214 0.04575544 -0.074012645
0000b0 60 96 54 3d 39 d5 b0 bd 09 bc 44 3d 62 71 a5 bd
       0.05190122 -0.08634419 0.048030887 -0.08078267
0000c0 fc 6c 02 3d af 64 cb 3c 04 e4 69 bd 6b aa 0c 3c
       0.031842217 0.024828283 -0.05710222 0.008585553
0000d0 5a 97 c4 3d b4 ca f6 bd 31 25 84 bd 25 cc 34 3d
       0.095991805 -0.12050381 -0.06452406 0.04414
0000e0 ba 9c 52 3d ce 6d 82 bd 7c e7 78 3b 03 59 23 bd
       0.051418997 -0.063686 0.0037979772 -0.03987981
0000f0 e9 96 c4 3d b6 19 e6 3c 4e ea 89 3d 26 76 b4 3c
       0.09599096 0.028088432 0.06734143 0.022028994
000100 66 16 a6 bd e2 aa 9a bd da dc 94 3b bb 55 33 bd
       -0.08109741 -0.075521246 0.004542929 -0.04378293
000110 2d 08 ac bd 35 6b 3c 3b c4 aa e3 3c 18 2c 62 bd
       -0.08399997 0.0028750424 0.027791388 -0.055217832
000120 cf d6 87 3d 24 70 16 be f4 c0 72 bd ac 2d d4 3c
       0.06632768 -0.14691216 -0.059266046 0.025900684
000130 c6 5c 18 bd 14 24 cc bb bf f7 22 bd 88 bb d4 3d
       -0.03719785 -0.006229887 -0.03978705 0.10387331
000140 84 1d eb 3c 3b 56 be bd 0c ae e4 3d 10 c2 28 bd
       0.028700598 -0.09293791 0.11166009 -0.041200697
000150 c7 96 8f 3d f1 93 80 3d 76 43 70 bd 1c 94 b8 3c
       0.0701118 0.062782176 -0.058658086 0.022531562
000160 74 79 16 bd 8f 9c 7d 3d 1c 45 de bd 75 9d ab bb
       -0.03673692 0.061916884 -0.10853025 -0.005237276
000170 d2 8d 50 3d 92 f4 d1 bc 5c 47 4c 3d 5d a5 ab 3d
       0.0509165 -0.025629316 0.04987274 0.0838115
000180 82 38 32 3d db 6b 95 3c cd 97 0e 3c 61 3f 7b 3d
       0.04351092 0.018239906 0.008703184 0.06133974
000190 3d 96 fe bd ab e6 e9 bd e0 ee 0a bd 79 99 a1 3d
       -0.124309994 -0.114209495 -0.033919215 0.07890601
0001a0 e0 25 8e 3c e9 e7 89 3b b4 05 ce 3c 44 75 80 3d
       0.017352045 0.004208554 0.025149204 0.06272367
0001b0 10 27 43 3d 73 fd 31 3d 35 b3 33 bd 12 48 45 3d
       0.047644675 0.0434546 -0.043872077 0.048164435
0001c0 f6 18 34 bd 75 94 a5 3c bb 7e ce 3d ce 18 c5 3d
       -0.043969117 0.020212391 0.10082766 0.09623872
0001d0 f8 09 cc 3d a9 40 c8 bc 37 2a 5f ba 55 31 37 3c
       0.09962839 -0.024444895 -0.00085130654 0.011181195
0001e0 5d d1 48 3d f3 e4 b3 bb 05 95 98 3d 0a cc 82 bd
       0.04902779 -0.0054899394 0.07450298 -0.063865736
0001f0 40 f6 49 3d 8b f0 66 bd d2 8b ef bd ae ed 9c bc
       0.049307108 -0.056381743 -0.116965905 -0.019156303
000200 ee 21 b3 3d f1 83 28 3d 78 27 ce bd c3 15 2d bd
       0.08746706 0.041141454 -0.10066122 -0.04225708
000210 bf 31 95 bd 9b 83 86 bd 54 8f ab 3d 48 a2 2c 3d
       -0.07284879 -0.065680705 0.08376947 0.04214695
000220 6a e0 aa 3d e6 08 c2 3d 3f 38 bd 3d bb 2f 04 3d
       0.08343585 0.094743535 0.09239244 0.03227208
000230 b7 2b da bd 2c 2b 28 3d b8 5a 08 be ba 21 be bc
       -0.10652869 0.041056797 -0.13315856 -0.023209441
000240 5e 1d 22 3a ca 24 56 bd 9c 8d 54 3d d3 8d 58 3d
       0.00061841856 -0.05228118 0.05189286 0.05286963
000250 8f 37 8c 3d ed 1e 13 3b e0 78 35 3c 3a 13 97 bd
       0.068465345 0.0022448853 0.011076182 -0.07376714
000260 a2 c7 68 3d 23 4f 85 3d 7d 00 e9 3c c2 9e e7 bc
       0.05683101 0.06509235 0.028442616 -0.028273944
000270 42 27 08 3d 2b 1e 7c 3d 0a 1a a5 3c a6 f5 c9 38
       0.033240564 0.061552208 0.020154018 9.6301825e-05
000280 4b 76 e7 3d 32 08 e4 3d 78 78 34 bd 83 d2 45 3d
       0.113018595 0.11134376 -0.0440602 0.048296463
000290 7a 8b 8e 3d 1f b5 3f 3c 0c f1 85 bd 21 4a 2d 3d
       0.06960197 0.0117008975 -0.06540117 0.042307023
0002a0 16 82 6d 3d 58 d2 86 3d e5 3b 92 bc 46 d0 82 3d
       0.057985388 0.06583089 -0.017850826 0.06387381
0002b0 d1 98 03 3c 73 16 b9 3d 27 a8 79 bd 16 66 cb 3c
       0.00803204 0.09037485 -0.06095138 0.024828952
0002c0 9f f9 01 3d db ad 40 bd ce 3e af 3d c4 18 f9 3d
       0.031732198 -0.0470408 0.08556901 0.12162927
0002d0 88 3d 9e 3d eb c1 04 be 85 53 84 bc b7 94 f5 bc
       0.0772658 -0.12964599 -0.016153106 -0.02997814
0002e0 11 1e a2 3c 36 4b b3 bd 80 f0 e1 3d 5c 0b 1e bd
       0.019789727 -0.0875458 0.110322 -0.038585052
0002f0 54 7d b8 bc aa f1 25 bd 61 a5 0c be b6 36 88 bc
       -0.022520699 -0.040513672 -0.13734962 -0.01662765
000300 b0 38 c2 3c d4 c9 8a 3c 4d 5f 49 3d 76 d9 29 3c
       0.023708671 0.016941942 0.04916315 0.010366788
000310 c9 51 3e bb 54 56 8b 3d 74 0d a7 bd d0 53 04 bd
       -0.0029040447 0.06803575 -0.08156863 -0.032306492
000320 76 18 bd bd 22 1e 4e 3d d8 39 31 3d 59 b8 f2 bc
       -0.09233181 0.050321706 0.043268055 -0.02962892
000330 34 7b 8b 3d 96 4d d0 3d 96 91 50 bd 7e 19 96 3b
       0.068106085 0.10171048 -0.05092009 0.0045806756
000340 80 9a 18 be 82 3f 90 bd 6e 8b 97 bc f9 d9 a8 3d
       -0.14902687 -0.07043363 -0.018499102 0.082447
000350 62 b9 fd 3c a1 aa 17 3d a1 99 db 3d b9 96 b5 3d
       0.030972186 0.03702796 0.10722662 0.08866639
000360 bf 1e 07 3d b0 5f de bd 76 79 db 3c 07 e9 a8 3c
       0.032988306 -0.10858095 0.026791316 0.020618929
000370 72 21 2f bd d3 db 0f be 3e 8e 31 bc fd 1e 35 bd
       -0.042756505 -0.140487 -0.010837136 -0.044219006
000380 50 ec 01 3e 68 73 db bc 49 fe 91 3d c9 57 d8 bd
       0.12687802 -0.026788428 0.07128579 -0.10563619
000390 9f 3b 0b 3e c9 be a6 3d 4d 54 a2 bb 06 26 a4 bd
       0.13596962 0.08141858 -0.004953897 -0.08015065
0003a0 45 66 49 bd 49 62 5e 3d d1 04 8d 3d 29 ad c5 bd
       -0.049169797 0.05429295 0.06885684 -0.09652168
0003b0 9d e6 9b 3d 8a c3 f6 3d a4 c8 d3 3d 23 e8 1e bc
       0.07612345 0.12049015 0.103410035 -0.0096989
0003c0 76 6d 27 bb 95 00 88 bd 42 56 58 3d 7a 6f 65 bc
       -0.0025547422 -0.06640736 0.052816637 -0.014003629
0003d0 91 23 66 bd 19 d7 94 3d 6a d3 b5 bd a0 d2 d5 bb
       -0.056186263 0.07267589 -0.08878215 -0.0065253526
0003e0 b6 cd 3b 3d fd 88 b7 bc 80 6a a6 3d 34 44 a0 bd
       0.045850478 -0.022404188 0.08125782 -0.07825509
0003f0 bc 64 be bd c3 ed 9e 3d 4b d5 6b 3c 06 17 49 bd
       -0.09296557 0.07760193 0.014394115 -0.049094222

encoder.rnn.bias_ih_l1 f4 [150]
000000 0d 67 c2 3d 47 99 a3 3d b1 da b7 3c 78 65 2d bd
       0.094923116 0.0798822 0.022443147 -0.042333096
000010 67 e5 42 bc a5 41 3e 3d 23 ac 6e 3d 7a 13 ac bd
       -0.011895514 0.046449322 0.05826963 -0.08402152
000020 a2 aa 5c 3e ff b8 68 bd 2b 80 35 3e 83 ca d8 bc
       0.21549466 -0.05681705 0.17724673 -0.026463753
000030 6c 17 4a bc ef 27 1f 3e ef b4 67 bc a0 5d 47 3b
       -0.012334686 0.15542577 -0.014142259 0.0030420795
000040 93 86 32 3d e9 cb 75 bd 29 0e 82 3d 05 25 ea bd
       0.04358537 -0.060008917 0.06350357 -0.11432842
000050 66 d6 2e 3e 56 7e 8e 3d 74 9a 0f be 0d d3 e9 3d
       0.17073974 0.069576904 -0.14023763 0.11417208
000060 17 58 12 3d 62 39 7c 3e 9c 87 b6 bd b2 6a ac bc
       0.03572854 0.24631265 -0.08912584 -0.02104697
000070 a1 52 5b bd 6e 8b 20 bc 29 4e a2 bd 3a 82 a1 bd
       -0.053545598 -0.009798868 -0.07925064 -0.07886167
000080 f1 3c 60 bc 27 e0 b7 3d fb a7 7a 3c 38 32 52 3c
       -0.013686405 0.089783005 0.015298839 0.012829356
000090 43 93 74 bd db e8 87 3e e8 31 03 3e 2a ff e7 bd
       -0.059710752 0.26544842 0.12812006 -0.113279656
0000a0 4f c3 7e 3d 1c 92 02 bd c9 77 64 3c cd 39 00 3d
       0.06219798 -0.031877622 0.013944575 0.031305123
0000b0 c7 c5 16 3d 9b 4c 89 bc 05 e9 b6 3d e6 01 e7 3c
       0.03680971 -0.016760161 0.08931164 0.028199147
0000c0 e3 d9 dc 3d 23 06 dd 3d 2b 5e 73 bd 6c f4 be 3e
       0.10783746 0.10792186 -0.059415977 0.37295854
0000d0 6c c9 f6 3d 97 25 98 3e 2e 79 c8 3e 44 43 84 3e
       0.12050137 0.2971618 0.39154953 0.2583257
0000e0 6e 7d 62 3e ce 84 30 3e 19 2f 61 3d 77 e4 fe 3d
       0.2211816 0.17238161 0.054976556 0.1244592
0000f0 86 36 98 bd 59 d7 fd 3d 72 d5 65 3e d8 04 b7 3c
       -0.074322745 0.1239459 0.22444704 0.022341177
000100 c6 a4 85 3e 9c 92 bb 3e 1e ff 34 3e ce 25 de 3e
       0.26102275 0.36635292 0.17675444 0.43388218
000110 ac 74 a5 3d 7d 5b 14 3e 21 31 68 3d 26 ca f8 3d
       0.08078894 0.14488025 0.056687478 0.12147932
000120 7b c2 ed 3e d7 36 03 3c 81 6b c4 3d 93 14 7b be
       0.4643744 0.00800868 0.09590817 -0.24519567
000130 a1 90 ba 3e b9 60 a6 3e 1a 20 a5 3e 42 c9 c7 3d
       0.36438468 0.3249567 0.32251054 0.09755184
000140 8e b1 9e 3d 6c 7a d4 3d 7a 7a 10 3c 69 df cc 3d
       0.077487096 0.103749126 0.008818263 0.100035496
000150 1c 9c 9b 3e cd 79 31 3e 23 6b b3 3e 35 bd 25 3e
       0.3039254 0.1733162 0.35042676 0.16185458
000160 97 b8 17 3c 32 c0 4c 3e 86 fc 1e 3e a8 82 21 3e
       0.009260318 0.19995192 0.15526018 0.15772498
000170 71 96 39 3e c2 58 4e 3e c8 f3 9c 3e cf 07 b1 3e
       0.18123795 0.20151046 0.3065474 0.3457627
000180 4d a6 0a bc 28 a1 aa 3d ec f2 93 3e 42 c0 79 3e
       -0.008462501 0.08331519 0.28896272 0.24389747
000190 f8 da 5a be 30 eb 09 3e dc d0 55 3e 2d 27 63 bd
       -0.21372592 0.13468623 0.20880455 -0.055457283
0001a0 be b8 83 3e 5a ae 0d 3e a9 d7 45 be 0b b5 46 bb
       0.25726885 0.13836041 -0.19320549 -0.0030320312
0001b0 1e 6c 95 3d 93 0b 05 be 74 dc 88 3e 5c 95 a2 be
       0.07296012 -0.12992696 0.26730692 -0.31754577
0001c0 d0 6a 14 3e 15 e6 af bc c0 43 d4 3e 0a d7 a3 bd
       0.1449387 -0.021472016 0.4145794 -0.08
0001d0 13 be 05 3e fb ba 2b bd c0 4a 78 be 51 be 60 3d
       0.13060789 -0.041926365 -0.24247265 0.054869
0001e0 48 98 ff 3d a5 d2 98 3d 33 fb a4 bd b8 65 4f 3d
       0.12480217 0.07462052 -0.08055725 0.050634116
0001f0 93 e1 b1 3d 05 32 98 be 22 2d 28 bb 59 41 31 be
       0.08685603 -0.29725662 -0.0025661667 -0.17310084
000200 7e 76 bc bb 93 da 1e 3e 61 c0 2d bd cb 43 d3 be
       -0.00575143 0.15513067 -0.042419795 -0.4126266
000210 1b 99 c2 bd 75 69 31 bd 28 a6 4b be ae d7 54 3e
       -0.09501859 -0.043313462 -0.19887602 0.207854
000220 7a 86 6d bd 3e 63 55 3e c1 1e 78 3e 6f 43 c8 3e
       -0.057989575 0.20838639 0.24230482 0.39113948
000230 2d e1 20 be 6f 07 75 bd 2a bc 78 be 60 da e6 3d
       -0.15710898 -0.059821542 -0.24290529 0.112721205
000240 ae 3f 99 bc 8d aa 2a bd 9f 0a a3 be e6 fb 30 3e
       -0.018707123 -0.041666556 -0.3184404 0.17283592
000250 63 fe 48 3d d2 dc ba be
       0.049070727 -0.36496598
